NeuralNetwork_MNISTDataset/my_mnist_model_CPU.pt (torch, 97759 bytes, 4 tensors)

weight f4 [30, 784]
0	0x3c7bae9d	0.015361455
1	0x3c96dd48	0.018416062
2	0x3c91c058	0.017791912
3	0xbb2b564a	-0.0026143962
4	0xbc3632de	-0.011120526
5	0x3c1e05f6	0.009644976
6	0xbaf68cc1	-0.0018810258
7	0xbb8d410f	-0.004310734
8	0xbc256ac6	-0.010096258
9	0x3ce51648	0.027964726
10	0xbb00738d	-0.0019600124
11	0xbc46e0ae	-0.012138529
12	0xba00f45b	-0.00049192243
13	0xbb906dc0	-0.0044076145
14	0x3c6ebee8	0.014571883
15	0xbc9b40b4	-0.018951751
16	0x3a129ae1	0.0005592537
17	0x3d120858	0.03565249
18	0xbbad5f66	-0.0052909134
19	0x3ad5307f	0.0016265063
20	0xbc99a4b4	-0.018755294
21	0x3cfbd98e	0.030743387
22	0x3d0b6388	0.034030467
23	0xbcedc28a	-0.029023428
24	0xbbed02f8	-0.00723302
25	0xbc8b0c84	-0.016973741
26	0x3bd88fc2	0.006608934
27	0xbcfbc230	-0.030732244
28	0xbcb2dd28	-0.021833971
29	0xbb224be8	-0.0024764482
30	0x3d1cc4d8	0.038273662
31	0x3d097cfe	0.033566467
32	0x3d0938d4	0.03350146
33	0x3cf7e279	0.030259358
34	0x3a625916	0.00086344907
35	0x3b244842	0.0025067483
36	0x3cd296f5	0.025706748
37	0xbcee6051	-0.029098662
38	0x3c37afe3	0.011211368
39	0x3ca20537	0.019777877
40	0x3d14ad4b	0.036298078
41	0x3ccec6c0	0.025241256
42	0xbce5ece3	-0.028067058
43	0xbcea1c55	-0.028577963
44	0xbc206e3d	-0.009791908
45	0xbcd3526e	-0.025796141
46	0x3cd741d6	0.02627651
47	0x3a6c82c5	0.0009022172
48	0x3cad2f5e	0.02114075
49	0x3cb6cf36	0.022315603
50	0xbd003c79	-0.03130767
51	0xbcb02262	-0.02150077
52	0x3a9fcce7	0.0012191803
53	0x3d18d22a	0.037309803
54	0xbcb2583a	-0.021770585
55	0xbcdd9904	-0.027050503
56	0xbc492f9e	-0.012279419
57	0x3d19b148	0.037522584
58	0x3baf2cce	0.0053459173
59	0xbbbde523	-0.0057951375
60	0xbbe39247	-0.006944928
61	0xbcff0ce2	-0.031134073
62	0x3ca5a9e7	0.020222617
63	0xbbdf17c2	-0.006808252
64	0x3b1d21c0	0.0023976415
65	0x3cc4ad20	0.024008334
66	0x3c3f3c5c	0.011672106
67	0xbd1938c7	-0.037407663
68	0xbd106006	-0.035247825
69	0xbd1be313	-0.03805835
70	0xbce6c1ce	-0.028168585
71	0xbd3e102a	-0.046402134
72	0xbd1968a2	-0.0374533
73	0xbc37e3e6	-0.011223769
74	0xbc7d1334	-0.015446473
75	0xbd21a941	-0.039468054
76	0xbc7bb473	-0.015362847
77	0xbce725cc	-0.028216265
78	0x3cb046d3	0.021518147
79	0x3befc9e8	0.0073177703
80	0xbce62041	-0.028091552
81	0xbbc4aec8	-0.006002281
82	0xbc1ef1fa	-0.009701246
83	0xbc080642	-0.008302273
84	0x3cb870ea	0.02251478
85	0xba6372bd	-0.000867646
86	0x3c627c18	0.013823532
87	0x3af1ae08	0.0018438706
88	0x3cd3da5a	0.025860954
89	0xbcfcaaf8	-0.030843243
90	0x3c90826e	0.017640319
91	0xbc13472f	-0.008989139
92	0xbb78fd12	-0.0037992639
93	0x3c838a5a	0.016057182
94	0x3bf27f18	0.0074004047
95	0x3c3815c1	0.011235655
96	0xbd472821	-0.048622254
97	0xbcaa6df6	-0.020804387
98	0xbd7fdcdc	-0.062466487
99	0xbd6d84bb	-0.05798791
100	0xbd512342	-0.051059015
101	0xbd99fcda	-0.07518931
102	0xbd23fb0f	-0.04003435
103	0xbd20ef3b	-0.039290648
104	0xbd6eb010	-0.058273375
105	0x3c16d24f	0.009205415
106	0x3c2cd598	0.010548972
107	0xbcec1cd5	-0.028822342
108	0x3c097a63	0.008390996
109	0x3cc588a0	0.024113
110	0xbcf296d0	-0.029612929
111	0x3c09c014	0.008407611
112	0x3cbc46d6	0.022982996
113	0xbc69fd92	-0.014281647
114	0xbce7124a	-0.028206963
115	0x3cad8282	0.021180395
116	0x3ce922f0	0.028459042
117	0x3ceefda6	0.029173683
118	0xbd0b2535	-0.03397103
119	0x3b2ea856	0.002665063
120	0xbc306e6d	-0.010768515
121	0xbd08f417	-0.033435907
122	0xbbac8e43	-0.0052659824
123	0xbd207962	-0.03917826
124	0xbd0d6cbd	-0.03452753
125	0xbca3200d	-0.019912744
126	0xbc23693a	-0.009973818
127	0xbc9a8cff	-0.01886606
128	0xbd919d22	-0.07110049
129	0xbd4bcc18	-0.049755186
130	0xbd04c319	-0.032412622
131	0xbc2cb756	-0.010541758
132	0xbced9f25	-0.02900655
133	0xbc0e0e4c	-0.008670401
134	0xbd0ffffe	-0.035156243
135	0x3cd6cab5	0.026219705
136	0xbc4d2823	-0.012521776
137	0x3cb3dc03	0.021955496
138	0x3cb68324	0.02227933
139	0xbca4c3db	-0.020112922
140	0x3c8c612e	0.017136183
141	0x3c8d2e92	0.01723412
142	0xbcefa05b	-0.029251268
143	0xbc42d239	-0.011890941
144	0xbc3fb8f1	-0.011701808
145	0xbc67259e	-0.01410809
146	0x3c98af6e	0.018638339
147	0x3a552abc	0.0008131673
148	0xbd5a4b4a	-0.053294457
149	0xbc6c96ef	-0.014440282
150	0xbd943492	-0.072365895
151	0xbd4751df	-0.048662063
152	0xbd4ca22b	-0.049959343
153	0xbd391740	-0.04518819
154	0xbd99b53c	-0.07505271
155	0xbdb9100d	-0.090362646
156	0xbd387bab	-0.045039814
157	0xbd17846e	-0.03699153
158	0xbd11a5eb	-0.035558622
159	0xb9a9a92a	-0.0003236023
160	0x3acfe999	0.0015862464
161	0x3d00d357	0.03145155
162	0xbcfc8d05	-0.030828962
163	0x3cbb49d2	0.022862349
164	0x3bb2647a	0.0054441066
165	0x3cc1cefb	0.023658266
166	0xbc81482e	-0.015781488
167	0xbc5e5fac	-0.013572615
168	0xbae0b345	-0.001714327
169	0x3ad3d995	0.0016162867
170	0xbcd115fa	-0.025523175
171	0x3d04f80e	0.032463126
172	0x3ce949c4	0.028477557
173	0xbc721561	-0.014775605
174	0xbd231189	-0.039811645
175	0xbd13e60b	-0.036108058
176	0xbcb6eeef	-0.02233073
177	0xbd6def0c	-0.0580893
178	0xbd0cfb2b	-0.03441922
179	0xbd1d8b7d	-0.038463105
180	0xbcec53c4	-0.028848536
181	0xbc48752c	-0.012234967
182	0x3cef6ba2	0.029226128
183	0xbbdd31f0	-0.006750338
184	0x3ada66d9	0.0016662731
185	0xbc3a4ce9	-0.011370876
186	0xbc8f759e	-0.017512139
187	0x3bae42a3	0.0053180023
188	0xbb88a333	-0.0041698455
189	0x3cb8da2e	0.022564974
190	0xbc8449bc	-0.01614844
191	0x3cc3952c	0.023874842
192	0xbc527305	-0.012844806
193	0x3ce84930	0.028355211
194	0xbcfcaca6	-0.030844044
195	0x3d10dbb8	0.03536579
196	0xbcded81e	-0.027202662
197	0xbb80fff6	-0.003936763
198	0xbb1eab2d	-0.0024210915
199	0x3cd8d856	0.026470345
200	0xbbfe9c8b	-0.007770126
201	0x3cf685c6	0.030093085
202	0xbc8b5f5b	-0.017013242
203	0xbb76586f	-0.0037589332
204	0xbcbf1ca0	-0.02332908
205	0xbd2d7b2d	-0.042353798
206	0xbc7a8945	-0.015291517
207	0x3cabd556	0.02097575
208	0x3d8e254c	0.069407076
209	0x3d9e40a9	0.07727177
210	0x3e10bb26	0.14133891
211	0x3dfbf24e	0.12302075
212	0x3de5fa37	0.11229365
213	0x3d9daa02	0.07698442
214	0x3dacd492	0.08438982
215	0x3d237d66	0.03991451
216	0x3d398602	0.045293815
217	0xbca91bd5	-0.020643154
218	0x3c88dcf6	0.016706925
219	0x3c8b8062	0.017028991
220	0x3bfbd010	0.007684715
221	0xbaf706ea	-0.0018846665
222	0xba94455c	-0.0011312175
223	0xbd06b609	-0.032888446
224	0x3c951de2	0.018202726
225	0x3d03572a	0.032065548
226	0xbc8dd9b3	-0.017315721
227	0x3cd56184	0.026047476
228	0x3d26e825	0.040748734
229	0x3c18188a	0.009283194
230	0xbcbfe854	-0.023426212
231	0xbd0e82c5	-0.03479268
232	0xbb25cb65	-0.0025298235
233	0x3b61741c	0.0034401482
234	0x3cb9cbe6	0.022680234
235	0x3d2c463c	0.04205917
236	0x3dd22bd2	0.10262264
237	0x3dde2dbc	0.10848567
238	0x3de5d09d	0.112214305
239	0x3e17bd3a	0.14818278
240	0x3dfd9448	0.12381798
241	0x3e054d47	0.1301776
242	0x3dce3929	0.10069496
243	0x3d445e79	0.04794166
244	0x3d422efb	0.047408085
245	0x3cbbaf34	0.022910692
246	0x3c9e0c8c	0.019293092
247	0x3d2e4d8f	0.042554434
248	0x3bd2f15f	0.006437465
249	0xbbdf28d4	-0.006810287
250	0x3d1c961f	0.038229104
251	0xba826879	-0.0009949348
252	0xbc36479c	-0.011125471
253	0x3c34e164	0.011040065
254	0xbcd2a628	-0.025713995
255	0x3ce5f3ed	0.028070414

bias f4 [30]
0	0x3d031f80	0.032012463
1	0x3c9e5e1c	0.019331984
2	0xbd044629	-0.032293472
3	0x3d026065	0.03183021
4	0xbc81cd21	-0.015844883
5	0xbc13e98a	-0.009027848
6	0xbbe06d02	-0.0068489322
7	0x3c9753b3	0.018472528
8	0xba3bf1a9	-0.0007169494
9	0x3cec7aa9	0.028867083
10	0x3c99a98b	0.018757602
11	0x3ba363dc	0.0049862694
12	0xbc836740	-0.016040444
13	0x3cedb00c	0.02901461
14	0xbc08c63f	-0.008348047
15	0x3d02e931	0.03196067
16	0xbca37ae8	-0.019956067
17	0xbb88b50e	-0.004171974
18	0x3b898f08	0.004197959
19	0x3cfbd414	0.030740775
20	0x3c8fc457	0.017549677
21	0xb90683fd	-0.00012828405
22	0xbc67f5e0	-0.014157742
23	0x3c843012	0.016136203
24	0x3bfb370a	0.0076664733
25	0x3c6c8ab6	0.014437368
26	0x3d324f2c	0.043532535
27	0x3c563551	0.013074235
28	0xbc0d9e23	-0.00864366
29	0xbbd7a599	-0.00658102

weight f4 [10, 30]
0	0x3e947f0f	0.29003188
1	0xbeba9eed	-0.36449376
2	0xbefe9289	-0.49721172
3	0x3f0abcb6	0.541942
4	0xbf5a4b68	-0.8527131
5	0xbf341985	-0.7035144
6	0xbdfd7615	-0.12376038
7	0x3d633ee8	0.055479914
8	0x3ee647f9	0.44976786
9	0xbeed0ab1	-0.4629722
10	0xbf02aa6d	-0.510413
11	0x3e6798f6	0.22616944
12	0xbe835b3a	-0.25655538
13	0x3e0e0b37	0.13871466
14	0x3f327b23	0.6971914
15	0x3ebbf9c0	0.36713982
16	0xbf5e6814	-0.8687756
17	0xbf01f171	-0.50759035
18	0xbecd675b	-0.40117916
19	0xbe623465	-0.220903
20	0xbf1ec898	-0.6202483
21	0x3e66a94f	0.22525524
22	0xbe231df5	-0.15929396
23	0xbd09bf01	-0.03362942
24	0xbc75c475	-0.015000452
25	0xbefeda5e	-0.49775976
26	0x3e5acbde	0.21366832
27	0xbf3da178	-0.74074507
28	0x3e301600	0.17195892
29	0x3ed2f0ab	0.4119924
30	0x3e516624	0.2044912
31	0xbe15bad2	-0.14622048
32	0xbebc2386	-0.36745852
33	0xbeeb9c69	-0.4601777
34	0x3ead7410	0.3387761
35	0x3f528d1f	0.82246584
36	0xbe7f45c1	-0.24928953
37	0xbf217f13	-0.63084525
38	0xbecc65d3	-0.39921436
39	0x3f26e69c	0.6519563
40	0xbf40d63e	-0.7532691
41	0xbf24f4b0	-0.64435863
42	0xbe165dd4	-0.1468423
43	0xbeb73dd5	-0.35789362
44	0xbe3176b0	-0.17330432
45	0xbf3d50e3	-0.7395155
46	0x3e5c98c5	0.21542652
47	0xbe487019	-0.19574012
48	0xbe4c2447	-0.19935714
49	0x3ea3655c	0.3191327
50	0x3e59117b	0.21198075
51	0x3e8672e6	0.26259536
52	0xbd145303	-0.03621198
53	0x3e028fb5	0.12750132
54	0xbd50f62a	-0.05101601
55	0x3f00fd2a	0.503863
56	0xbfa2d20b	-1.272035
57	0x3b62ed5f	0.0034626347
58	0xbec01cca	-0.37521964
59	0x3ea33d27	0.31882593
60	0xbf57c57d	-0.8428572
61	0xbe8fba4a	-0.28071815
62	0xbf1d671a	-0.61485445
63	0x3ef56b87	0.479336
64	0x3e410320	0.18848848
65	0x3ec6b194	0.38807356
66	0xbd286514	-0.04111202
67	0xbe70c663	-0.23513179
68	0x3e954127	0.2915127
69	0x3f2b19d5	0.6683629
70	0x3e788345	0.24268825
71	0x3e9ca6a7	0.30595896
72	0xbeb89d1d	-0.36057368
73	0xbf427eb4	-0.75974584
74	0x3d3b34c9	0.045704637
75	0x3ec76586	0.38944644
76	0xbefef2f5	-0.49794737
77	0xbdcc6b2d	-0.0998138
78	0xbebc11c7	-0.36732313
79	0x3e7dc42a	0.24781862
80	0x3ec6ff99	0.3886688
81	0xbe999908	-0.29999566
82	0xbe756833	-0.2396553
83	0xbf3fb547	-0.7488598
84	0xbf390597	-0.72274154
85	0x3e313c14	0.17308074
86	0xbe0e4b75	-0.13895972
87	0xbe8d8983	-0.27643976
88	0x3ec7286e	0.38898033
89	0xbe1e0046	-0.15429792
90	0xbc274da0	-0.010211378
91	0xbe6528f9	-0.22378911
92	0xbcb545dd	-0.02212804
93	0x3ef298bd	0.47382155
94	0xbf3c050d	-0.73445207
95	0x3f32d373	0.69853896
96	0xbece792d	-0.40326825
97	0x3e7aab55	0.2447942
98	0x3ef3e787	0.4763758
99	0xbeef705b	-0.46765408
100	0x3dcf3479	0.1011743
101	0xbf4d411f	-0.8017749
102	0xbe27945b	-0.16365187
103	0xbeceb4f5	-0.40372434
104	0xbefd367b	-0.49455628
105	0xbeac0957	-0.33600876
106	0x3eba1039	0.36340502
107	0xbe5219a9	-0.20517601
108	0xbdd8dbc4	-0.10588792
109	0x3dce686b	0.1007851
110	0xbf1b72f0	-0.60722256
111	0xbf3aff0e	-0.7304543
112	0xbf0863bf	-0.532772
113	0xbeae5ca2	-0.34055048
114	0x3c27c19f	0.010239034
115	0x3f266d8a	0.65010893
116	0x3d68ed8e	0.056867175
117	0xbf13d64f	-0.57748884
118	0x3eb96a2d	0.36213818
119	0xbeaba0a0	-0.33520985
120	0xbf31d789	-0.69469506
121	0xbe8af66a	-0.27141124
122	0x3eefa45f	0.46805093
123	0xbf1d2321	-0.6138173
124	0x3d953dad	0.07287154
125	0xbf37ce46	-0.71799123
126	0xbe9f5181	-0.3111687
127	0xbf1e9586	-0.61946905
128	0xbea91c7b	-0.3302954
129	0xbf1b907d	-0.60767347
130	0xbc85ab6b	-0.01631709
131	0x3d8b35be	0.0679736
132	0xbdd5251e	-0.1040747
133	0x3deab2b5	0.11459867
134	0xbe74cbe2	-0.239059
135	0x3ea963db	0.33083996
136	0x3efb689d	0.4910325
137	0xbe4e1192	-0.2012389
138	0xbdd28a63	-0.102803014
139	0xbf4c2d0e	-0.7975625
140	0x3f056aa9	0.52115875
141	0xbe132061	-0.1436782
142	0x3e9d953b	0.30777916
143	0x3dcdb994	0.10045162
144	0xbea6ba18	-0.32563853
145	0xbdad09e6	-0.084491536
146	0x3d154e04	0.036451355
147	0x3e89f301	0.2694321
148	0xbe41c666	-0.18923339
149	0xbf22356d	-0.6336277
150	0x3e5d6ea6	0.2162424
151	0xbdafd774	-0.08586016
152	0x3e3099b1	0.17246129
153	0xbde5491f	-0.11195587
154	0x3e4e02c2	0.2011824
155	0xbf19c3db	-0.60064477
156	0xbf020d9a	-0.50802004
157	0xbd315797	-0.043296423
158	0x3e70cf43	0.23516564
159	0xbe81a476	-0.25320786
160	0xbf0136b1	-0.5047408
161	0x3e1043b7	0.14088331
162	0xbe99330a	-0.29921752
163	0xbcb58f19	-0.02216296
164	0xbe9a132e	-0.30092758
165	0xbd151fd9	-0.036407325
166	0x3dc88790	0.097914815
167	0xbf07019f	-0.5273685
168	0xbbb0739b	-0.005384875
169	0x3a0c3606	0.00053486263
170	0xbe99caa8	-0.30037427
171	0xbed18868	-0.40924382
172	0x3e398996	0.18118891
173	0xbe3e97eb	-0.1861264
174	0xbd9ea64e	-0.07746564
175	0x3eb28fd6	0.34875363
176	0xbe0cf78f	-0.13766311
177	0xbf12bf7b	-0.57323426
178	0x3e2c2011	0.16809107
179	0x3ceb7580	0.028742552
180	0xbf4afe71	-0.79294497
181	0xbdf45687	-0.11930566
182	0x3ee2d734	0.44304812
183	0xbefbee5b	-0.49205288
184	0x3e85b6f0	0.26116133
185	0xbf16fc93	-0.5897915
186	0xbc27d3f8	-0.010243408
187	0x3d1b93dd	0.03798281
188	0xbf0cca03	-0.54995745
189	0x3f00323c	0.5007665
190	0xbf02a1f3	-0.51028365
191	0xbde35b3f	-0.11101388
192	0xbeb40c66	-0.3516571
193	0xbef71c02	-0.48263556
194	0xbea79f75	-0.32738844
195	0x3e61effc	0.22064203
196	0xbf69e0a7	-0.9135842
197	0xbcfe1e8f	-0.03102043
198	0xbc06b2af	-0.008221312
199	0xbf49c72b	-0.7881953
200	0x3f0c19ef	0.5472707
201	0x3df9aed7	0.12191551
202	0xbf37b171	-0.7175513
203	0x3d61b373	0.055102777
204	0xbd5aee88	-0.053450137
205	0xbf096675	-0.5367196
206	0x3e5cd9ce	0.21567461
207	0xbf0d5595	-0.5520871
208	0x3e0b18f3	0.13583736
209	0x3f0aaffb	0.54174775
210	0x3ec675b1	0.38761666
211	0xbe53ad7b	-0.20671646
212	0xbf094d8d	-0.5363396
213	0xbecdf323	-0.4022456
214	0xbf1254a7	-0.5716042
215	0xbc5c5d8d	-0.013450039
216	0xbe09da91	-0.13462283
217	0xbf4766c3	-0.77891177
218	0x3efff03a	0.49987966
219	0x3ead375c	0.33831298
220	0x3e9c19c7	0.30488417
221	0x3ef037e5	0.46917644
222	0xbe8616fb	-0.26189408
223	0xbe204b79	-0.1565379
224	0x3edd3df4	0.4321133
225	0xbf394cdb	-0.723829
226	0x3ee5a2b9	0.4485071
227	0x3d078f53	0.03309567
228	0xbebc54b7	-0.36783382
229	0x3e496e40	0.19670963
230	0xbeb3bdea	-0.3510583
231	0xbf2aa6c7	-0.6666073
232	0xbe899858	-0.26874042
233	0xbeb5edc2	-0.35532957
234	0xbd42abb3	-0.047527026
235	0xbf188d4c	-0.595906
236	0xbd25c8db	-0.040474754
237	0x3ecc2d9a	0.3987854
238	0xbf17016d	-0.5898655
239	0xbf2939c1	-0.6610375
240	0xbec1aa81	-0.37825397
241	0xbee4a001	-0.44653323
242	0xbc2296a7	-0.009923614
243	0x3ea844b6	0.32864922
244	0x3ebddf09	0.37084225
245	0x3f01656c	0.5054538
246	0xbea637be	-0.32464403
247	0x3e489600	0.1958847
248	0xbf2a20bb	-0.6645619
249	0xbeffb736	-0.49944466
250	0x3d4b4b24	0.049632207
251	0x3e94b719	0.29045942
252	0xbe33545d	-0.17512651
253	0x3decf7f3	0.1157073
254	0xbeeca953	-0.46222934
255	0x3e9eaa13	0.3098913

bias f4 [10]
0	0xbecdf4bc	-0.4022578
1	0xbe81794d	-0.25287858
2	0xbee70101	-0.45117953
3	0xbe7ccebb	-0.24688236
4	0xbe2661a6	-0.16248187
5	0xbe91588f	-0.28387877
6	0xbca619a8	-0.020275906
7	0xbcfbdec5	-0.030745873
8	0xbe1a9b2a	-0.15098253
9	0xbd547196	-0.051866136
